…
[OK]: inference is ignored, alternative method for inference
[OK]: loss is ignored, loss defined within model module
[OK]: other_setups is ignored, other setup functions before training
[OK]: flag_validation is ignored, flag to indicate train or validation set
[OK]: validation is ignored, deprecated. Please use model.flag_validation
[OK]: finish_up_inference is ignored, method to finish up work after inference
[94mModel infor:[0m
Model(
  (m_frontend): ModuleList(
    (0): GFB(
      (l_dct): LinearDCT(in_features=120, out_features=120, bias=False)
    )
  )
  (m_transform): ModuleList(
    (0): Sequential(
      (0): Conv2d(1, 64, kernel_size=(5, 5), stride=(1, 1), padding=(2, 2))
      (1): MaxFeatureMap2D()
      (2): MaxPool2d(kernel_size=[2, 2], stride=[2, 2], padding=0, dilation=1, ceil_mode=False)
      (3): Conv2d(32, 64, kernel_size=(1, 1), stride=(1, 1))
      (4): MaxFeatureMap2D()
      (5): BatchNorm2d(32, eps=1e-05, momentum=0.1, affine=False, track_running_stats=True)
      (6): Conv2d(32, 96, kernel_size=(3, 3), stride=(1, 1), padding=(1, 1))
      (7): MaxFeatureMap2D()
      (8): MaxPool2d(kernel_size=[2, 2], stride=[2, 2], padding=0, dilation=1, ceil_mode=False)
      (9): BatchNorm2d(48, eps=1e-05, momentum=0.1, affine=False, track_running_stats=True)
      (10): Conv2d(48, 96, kernel_size=(1, 1), stride=(1, 1))
      (11): MaxFeatureMap2D()
      (12): BatchNorm2d(48, eps=1e-05, momentum=0.1, affine=False, track_running_stats=True)
      (13): Conv2d(48, 128, kernel_size=(3, 3), stride=(1, 1), padding=(1, 1))
      (14): MaxFeatureMap2D()
      (15): MaxPool2d(kernel_size=[2, 2], stride=[2, 2], padding=0, dilation=1, ceil_mode=False)
      (16): Conv2d(64, 128, kernel_size=(1, 1), stride=(1, 1))
      (17): MaxFeatureMap2D()
      (18): BatchNorm2d(64, eps=1e-05, momentum=0.1, affine=False, track_running_stats=True)
      (19): Conv2d(64, 64, kernel_size=(3, 3), stride=(1, 1), padding=(1, 1))
      (20): MaxFeatureMap2D()
      (21): BatchNorm2d(32, eps=1e-05, momentum=0.1, affine=False, track_running_stats=True)
      (22): Conv2d(32, 64, kernel_size=(1, 1), stride=(1, 1))
      (23): MaxFeatureMap2D()
      (24): BatchNorm2d(32, eps=1e-05, momentum=0.1, affine=False, track_running_stats=True)
      (25): Conv2d(32, 64, kernel_size=(3, 3), stride=(1, 1), padding=(1, 1))
      (26): MaxFeatureMap2D()
      (27): MaxPool2d(kernel_size=[2, 2], stride=[2, 2], padding=0, dilation=1, ceil_mode=False)
      (28): Dropout(p=0.7, inplace=False)
    )
  )
  (m_output_act): ModuleList(
    (0): Linear(in_features=224, out_features=64, bias=True)
  )
  (m_angle): ModuleList(
    (0): P2SActivationLayer()
  )
  (m_before_pooling): ModuleList(
    (0): Sequential(
      (0): BLSTMLayer(
        (l_blstm): LSTM(224, 112, bidirectional=True)
      )
      (1): BLSTMLayer(
        (l_blstm): LSTM(224, 112, bidirectional=True)
      )
    )
  )
)
Parameter number: 777728

--------------------------------------------------------------
…
