…
[OK]: forward found
[OK]: inference is ignored, alternative method for inference
[OK]: loss is ignored, loss defined within model module
[OK]: other_setups is ignored, other setup functions before training
[OK]: flag_validation is ignored, flag to indicate train or validation set
[OK]: validation is ignored, deprecated. Please use model.flag_validation
[OK]: finish_up_inference is ignored, method to finish up work after inference
[94mModel infor:[0m
Model(
  (m_frontend): ModuleList(
    (0): Spectrogram()
  )
  (m_transform): ModuleList(
    (0): Sequential(
      (0): TrainableLinearFb()
      (1): Conv2d(1, 64, kernel_size=(5, 5), stride=(1, 1), padding=(2, 2))
      (2): MaxFeatureMap2D()
      (3): MaxPool2d(kernel_size=[2, 2], stride=[2, 2], padding=0, dilation=1, ceil_mode=False)
      (4): Conv2d(32, 64, kernel_size=(1, 1), stride=(1, 1))
      (5): MaxFeatureMap2D()
      (6): BatchNorm2d(32, eps=1e-05, momentum=0.1, affine=False, track_running_stats=True)
      (7): Conv2d(32, 96, kernel_size=(3, 3), stride=(1, 1), padding=(1, 1))
      (8): MaxFeatureMap2D()
      (9): MaxPool2d(kernel_size=[2, 2], stride=[2, 2], padding=0, dilation=1, ceil_mode=False)
      (10): BatchNorm2d(48, eps=1e-05, momentum=0.1, affine=False, track_running_stats=True)
      (11): Conv2d(48, 96, kernel_size=(1, 1), stride=(1, 1))
      (12): MaxFeatureMap2D()
      (13): BatchNorm2d(48, eps=1e-05, momentum=0.1, affine=False, track_running_stats=True)
      (14): Conv2d(48, 128, kernel_size=(3, 3), stride=(1, 1), padding=(1, 1))
      (15): MaxFeatureMap2D()
      (16): MaxPool2d(kernel_size=[2, 2], stride=[2, 2], padding=0, dilation=1, ceil_mode=False)
      (17): Conv2d(64, 128, kernel_size=(1, 1), stride=(1, 1))
      (18): MaxFeatureMap2D()
      (19): BatchNorm2d(64, eps=1e-05, momentum=0.1, affine=False, track_running_stats=True)
      (20): Conv2d(64, 64, kernel_size=(3, 3), stride=(1, 1), padding=(1, 1))
      (21): MaxFeatureMap2D()
      (22): BatchNorm2d(32, eps=1e-05, momentum=0.1, affine=False, track_running_stats=True)
      (23): Conv2d(32, 64, kernel_size=(1, 1), stride=(1, 1))
      (24): MaxFeatureMap2D()
      (25): BatchNorm2d(32, eps=1e-05, momentum=0.1, affine=False, track_running_stats=True)
      (26): Conv2d(32, 64, kernel_size=(3, 3), stride=(1, 1), padding=(1, 1))
      (27): MaxFeatureMap2D()
      (28): MaxPool2d(kernel_size=[2, 2], stride=[2, 2], padding=0, dilation=1, ceil_mode=False)
      (29): Dropout(p=0.7, inplace=False)
    )
  )
  (m_output_act): ModuleList(
    (0): Linear(in_features=192, out_features=64, bias=True)
  )
  (m_pooling): ModuleList(
    (0): SelfWeightedPooling()
  )
  (m_angle): ModuleList(
    (0): P2SActivationLayer()
  )
)
Parameter number: 185500

--------------------------------------------------------------
  Epoch |  Duration(s) |   Train loss |     Dev loss |  Best
--------------------------------------------------------------
      0 |         32.7 |       0.1061 |       0.3866 |   yes
…
